…
#x27;</span>, <span class="string">&#x27;kernel_size&#x27;</span>))</span><br></pre></td></tr></table></figure><pre><code>============================================================================================================================================Layer (type:depth-idx)                   Input Shape               Output Shape              Param #                   Kernel Shape============================================================================================================================================Digit_Recognizer_Model                   [1, 28, 28]               [1, 10]                   --                        --├─Conv2d: 1-1                            [1, 28, 28]               [64, 24, 24]              1,664                     [5, 5]├─MaxPool2d: 1-2                         [64, 24, 24]              [64, 12, 12]              --                        [2, 2]├─Dropout: 1-3                           [64, 12, 12]              [64, 12, 12]              --                        --├─Conv2d: 1-4                            [64, 12, 12]              [128, 8, 8]               204,928                   [5, 5]├─MaxPool2d: 1-5                         [128, 8, 8]               [128, 4, 4]               --                        [2, 2]├─Dropout: 1-6                           [128, 4, 4]               [128, 4, 4]               --                        --├─Linear: 1-7                            [1, 2048]                 [1, 64]                   131,136                   --├─Dropout: 1-8                           [1, 64]                   [1, 64]                   --                        --├─Linear: 1-9                            [1, 64]                   [1, 32]                   2,080                     --├─Dropout: 1-10                          [1, 32]                   [1, 32]                   --                        --├─Linear: 1-11                           [1, 32]                   [1, 10]                   330                       --============================================================================================================================================Total params: 340,138Trainable params: 340,138Non-trainable params: 0Total mult-adds (M): 212.54===========================================================================================================================================
…
